models/inception.pth (torch, 914741 bytes, 52 tensors)

block1.conv.weight f4 [64, 3, 7, 7]
0	0x3cff24f1	0.031145545
1	0x3db06bf6	0.08614342
2	0x3d25139b	0.0403019
3	0xbde3507b	-0.11099335
4	0xbd167206	-0.036729835
5	0x3d25e7c1	0.04050422
6	0x3e1491de	0.14508769
7	0xbd30ae7c	-0.04313515
8	0xbaf3477f	-0.0018560736
9	0xbd8151cd	-0.063144304
10	0x3caf49f8	0.021397576
11	0x3e4f21ac	0.20227689
12	0x3df2a625	0.11848096
13	0x3b73e63c	0.0037216088
14	0x3e09f94f	0.1347401
15	0xbc37ad40	-0.01121074
16	0xbde6f205	-0.1127663
17	0x3df2f2fc	0.11862752
18	0x3ea4e707	0.3220751
19	0x3cfe68d6	0.031055849
20	0xbe283b69	-0.16428913
21	0xbdc43524	-0.09580448
22	0xbdaff257	-0.085911445
23	0xbeb0b4f0	-0.34513044
24	0xbeb07cf3	-0.3447033
25	0xbed96e6c	-0.42467058
26	0xbec1d2e9	-0.37856224
27	0xbe373a83	-0.17893414
28	0xbde8d1be	-0.1136813
29	0x3d1dca2f	0.038522895
30	0xbe05b5e0	-0.13057661
31	0xbeb87324	-0.36025345
32	0xbed10fe5	-0.4083244
33	0xbe3d7027	-0.18499814
34	0x3e0cfa76	0.13767418
35	0x3e3e7b43	0.18601708
36	0x3e51ca83	0.20487408
37	0x3d9a6c8d	0.07540236
38	0x3e1bd47d	0.15217777
39	0x3e069748	0.13143647
40	0x3e56f0c2	0.2099028
41	0x3e160d43	0.14653496
42	0xbc899dcf	-0.016798882
43	0xbd54fc1f	-0.051998254
44	0x3ddbd7bf	0.1073451
45	0x3e9eacdb	0.30991253
46	0x3e300c3d	0.17192169
47	0x3e5c4370	0.215101
48	0x3d240859	0.040047023
49	0xbe20f978	-0.15720165
50	0xbca1e47c	-0.01976227
51	0xbc947016	-0.018119853
52	0xbe1ef721	-0.1552396
53	0xbdddcd8b	-0.1083022
54	0xbe15f6f7	-0.14644991
55	0xbe0d19a6	-0.13779315
56	0xbba476bd	-0.0050190375
57	0xbdd19b76	-0.1023473
58	0x3d50466d	0.050848413
59	0x3cf7e785	0.030261764
60	0x3eab1bcf	0.33419654
61	0x3e47216d	0.19446345
62	0x3d3cf3f9	0.046131108
63	0x3de0444f	0.10950529
64	0xbd2bfa18	-0.041986555
65	0x3dc4501d	0.09585593
66	0x3e8afa9b	0.27144322
67	0x3efcc361	0.49367812
68	0x3d1c2f3e	0.03813099
69	0xbde1930e	-0.110143766
70	0x3d4730e5	0.048630614
71	0xbdf3cfbf	-0.11904859
72	0xbdb5b167	-0.088717274
73	0xbe51695a	-0.20450345
74	0xbed9afba	-0.4251688
75	0xbeb6ec31	-0.35727075
76	0xbe7c663d	-0.24648376
77	0x3d20bfd6	0.03924545
78	0x3de37ab1	0.11107386
79	0x3db3952b	0.08768686
80	0xbe4ab7ae	-0.1979663
81	0xbe95f380	-0.29287338
82	0xbda99201	-0.08279801
83	0x3e61d6c9	0.2205459
84	0x3db4347e	0.087990746
85	0x3e30dcd0	0.17271733
86	0x3dff8e11	0.12478269
87	0x3e641050	0.22271848
88	0x3e33f953	0.17575578
89	0x3d3265e7	0.043554213
90	0x3e1afbc1	0.15135099
91	0xbe16a7d6	-0.14712462
92	0xbd79aa23	-0.06095327
93	0xbd9acf2a	-0.07559045
94	0x3e10323e	0.14081666
95	0x3d562cfb	0.05228899
96	0x3d1e5d6b	0.03866331
97	0xbd886c3d	-0.0666127
98	0xbe085ef7	-0.13317476
99	0x3dd5d076	0.104401514
100	0xbca277f7	-0.019832594
101	0xbe0dfbc8	-0.13865578
102	0xbdbcd168	-0.092196286
103	0xbe5398ea	-0.20663801
104	0x3d007c8a	0.03136877
105	0xbdc6d168	-0.0970791
106	0x3d594363	0.05304278
107	0x3da4ffed	0.080566265
108	0x3e10a113	0.14123945
109	0x3e8a87f6	0.27056855
110	0x3d455347	0.048175123
111	0x3cdab252	0.026696358
112	0x3df5c186	0.11999802
113	0x3d763fc3	0.0601194
114	0x3d041518	0.03224668
115	0x3e8e6198	0.27808833
116	0x3ef7a80f	0.48370406
117	0x3e2e0ed2	0.16997841
118	0xbdfa1e1d	-0.12212775
119	0xbda18efd	-0.07888601
120	0x3d82b54b	0.06382235
121	0x3c65c48b	0.01402391
122	0xbc1d51b9	-0.009602004
123	0xbde5725d	-0.11203454
124	0xbdb0b9e6	-0.08629207
125	0xbdb3ae45	-0.08773474
126	0x39e7ce18	0.00044213305
127	0xbbf52f6d	-0.0074824602
128	0x3d82593f	0.063646786
129	0xbe1b033f	-0.15137957
130	0xbe1ec1b6	-0.15503582
131	0x3d2fc83c	0.042915568
132	0x3e6838b0	0.22677875
133	0x3c5595df	0.01303622
134	0x3da19425	0.078895845
135	0x3d8a2458	0.06745213
136	0x3dcca19f	0.09991764
137	0x3d916ff1	0.07101429
138	0xbcc8dfd7	-0.024520798
139	0xbd3fe5c9	-0.04685
140	0xbe645b8b	-0.22300546
141	0xbe5b65a4	-0.21425492
142	0xbe11d06e	-0.14239666
143	0xbdc5ed43	-0.09664395
144	0xbd1bb5c3	-0.03801514
145	0xbdbaaf21	-0.091154344
146	0xbdc3724b	-0.09543284
147	0x3d32ab33	0.0436203
148	0xbc551768	-0.013006069
149	0x3d9d05fa	0.076671556
150	0xbc483c3c	-0.012221392
151	0xbe34dfc7	-0.1766349
152	0xbe250de7	-0.16118585
153	0xbde0d58a	-0.10978229
154	0x3d5d6544	0.054051653
155	0xbd122389	-0.03567842
156	0xbda0d727	-0.07853537
157	0xbdf47880	-0.11937046
158	0xbdeeb32e	-0.116552696
159	0x3d8dbab9	0.0692038
160	0x3d99c659	0.07508535
161	0xbd924b5b	-0.07143279
162	0xbdef8794	-0.11695781
163	0xbe09a80b	-0.1344301
164	0xbde71b3a	-0.1128449
165	0x3e131fd5	0.14367612
166	0x3e80783c	0.25091732
167	0x3dc1558d	0.09440146
168	0x3d76a8e3	0.060219657
169	0xbd2615e9	-0.04054824
170	0xbe4a8457	-0.19777046
171	0xbdfc6366	-0.12323646
172	0x3e78523c	0.2425012
173	0x3e9dc74f	0.30816123
174	0x3e124e15	0.14287598
175	0x3ca91136	0.02063809
176	0xbd38a542	-0.045079477
177	0x3d078b79	0.033091996
178	0x3d21c969	0.03949872
179	0x3e75ec2c	0.24015874
180	0x3dd5a9e4	0.10432795
181	0x3be2c20f	0.0069201062
182	0x3b46cf80	0.0030336082
183	0xbc133b1a	-0.008986259
184	0x3d2116f8	0.039328545
185	0xbcc58229	-0.024109917
186	0x3d27a956	0.040932976
187	0x3dcd0920	0.10011506
188	0xbdcdb7f5	-0.10044853
189	0x3d1a1cfe	0.037625305
190	0xbd668fb0	-0.056289375
191	0x3d64ce10	0.05586058
192	0x3bfbb23c	0.0076811593
193	0xba8ddb7a	-0.0010822855
194	0xbcf7fd32	-0.0302721
195	0x3d857a83	0.06517508
196	0x3e2284f7	0.15871035
197	0xbc6e5ddc	-0.014548745
198	0x3d796de3	0.06089581
199	0xbbf8f641	-0.007597715
200	0xbe3a5abd	-0.18198676
201	0xbd864472	-0.06556024
202	0xbd6e8291	-0.058229987
203	0x3a3fe014	0.0007319462
204	0x3c71d9f0	0.014761433
205	0x3d09c18b	0.033631843
206	0xbddb22f2	-0.10700025
207	0xbd24acd3	-0.04020388
208	0x3cc8b484	0.024500139
209	0x3d0fc456	0.03509935
210	0xbdf2a941	-0.11848689
211	0xbe33b1bb	-0.17548268
212	0xbea26db7	-0.3172433
213	0xbe2cee7d	-0.16887851
214	0xbd727266	-0.05919113
215	0x3e755e08	0.23961651
216	0x3db99425	0.090614595
217	0xbd14b236	-0.036302768
218	0xbd8f556d	-0.069987155
219	0xbe84c8f5	-0.25934568
220	0xbde109e5	-0.10988215
221	0x3e5b37ba	0.21407977
222	0x3ea7903d	0.32727233
223	0x3e3a6bdd	0.18205209
224	0xbd2071b8	-0.03917095
225	0xbded14b1	-0.11576212
226	0xbe26e087	-0.16296588
227	0xbdf906e2	-0.12159516
228	0x3e209f3e	0.15685746
229	0x3e44fa5c	0.1923613
230	0x3daf3a1b	0.085560046
231	0xbdadfdf1	-0.08495701
232	0xbd7f0399	-0.06225929
233	0xbd20b9ba	-0.039239623
234	0xbd8813ec	-0.06644425
235	0x3ca1bfe6	0.019744825
236	0xbb92f5f8	-0.004484888
237	0xbcce0fd0	-0.025154024
238	0x3d8b7e20	0.06811166
239	0x3d203725	0.03911509
240	0xbda22f0a	-0.07919128
241	0xbc6ef570	-0.014584884
242	0x3d42a780	0.04752302
243	0x3dee1daa	0.11626752
244	0x3d7fb526	0.062428616
245	0xbcaf49d8	-0.021397516
246	0xbde47fcd	-0.111571886
247	0x3d285f88	0.04110673
248	0x3d8250ab	0.063630424
249	0xbd65dc19	-0.056118105
250	0xbe1ee95e	-0.1551871
251	0xbdaef77d	-0.085432984
252	0xbd30d021	-0.043167237
253	0xbcf4b59e	-0.029871758
254	0xbdcc5b83	-0.09978392
255	0xbd104d16	-0.035229765

block1.conv.bias f4 [64]
0	0xbd0fa80e	-0.03507238
1	0x3dc6b881	0.0970316
2	0xbdb997fb	-0.09062191
3	0xbd5d1912	-0.053978987
4	0x3e712383	0.23548703
5	0x3d92e99d	0.071734644
6	0x3cfdb2ff	0.030969141
7	0x3d5d2baa	0.05399672
8	0xbda990a1	-0.08279539
9	0xbdcca348	-0.09992081
10	0x3dd0f478	0.10202879
11	0xbeac1cef	-0.33615825
12	0xbda3d510	-0.07999623
13	0xbd897aac	-0.06712851
14	0xbdf038d1	-0.11729587
15	0xbdaeff5d	-0.085448004
16	0x3d8ec311	0.069708
17	0xbe14fd1a	-0.14549676
18	0xbe0f28a1	-0.13980342
19	0xbc33987e	-0.01096165
20	0xbe5910f0	-0.21197867
21	0xbcb77d34	-0.022398569
22	0xbec7a9f6	-0.38996857
23	0xbe565e78	-0.20934474
24	0xbda4689e	-0.08027767
25	0xbd9ba995	-0.076007046
26	0xbd0a376f	-0.03374427
27	0xbe57a315	-0.21058305
28	0x3e193a42	0.1496363
29	0xbe94ef28	-0.29088712
30	0xbd192f67	-0.037398722
31	0x3e70161f	0.23445939
32	0xbdf1ab7f	-0.118002884
33	0x3d06d901	0.032921795
34	0xbef8f5d2	-0.48625046
35	0xbebe15dc	-0.37126052
36	0xbea12861	-0.3147612
37	0x3c04e4a4	0.008111153
38	0xbdeb43a9	-0.114875145
39	0xbd2c1e2a	-0.042020954
40	0xbe714338	-0.23560798
41	0xbefce931	-0.4939666
42	0x3e4f289d	0.20230336
43	0xbe70adb0	-0.23503757
44	0xbda5bd86	-0.08092789
45	0x3d8f5770	0.06999099
46	0xbdfb8401	-0.12281037
47	0xbecc602d	-0.39917126
48	0x3de5dc12	0.11223616
49	0xbe028dec	-0.12749451
50	0xbe978085	-0.2959024
51	0x3e0b5999	0.13608398
52	0xbdcb8908	-0.09938246
53	0xbe9f0e02	-0.31065375
54	0xbc36d75b	-0.011159743
55	0xbe0031e4	-0.12519032
56	0xbe15ada5	-0.14617021
57	0xbe014531	-0.1262405
58	0x3c49da27	0.012320078
59	0xbd282d8b	-0.04105906
60	0x3dc5cb00	0.0965786
61	0xbca997f3	-0.020702338
62	0xbf00dc4a	-0.50336134
63	0x3d43c872	0.04779858

block2.branch1x1.conv.weight f4 [16, 64, 1, 1]
0	0x3da7b110	0.08188069
1	0xbc7a6c4f	-0.015284612
2	0x3d2c00d4	0.041992977
3	0x3e58f44b	0.2118694
4	0xbde4af1f	-0.11166214
5	0x3dafd0eb	0.0858477
6	0x3c39c793	0.011339086
7	0xbd1b9ae9	-0.03798953
8	0x3d513619	0.051076982
9	0xbe980018	-0.29687572
10	0x3e9d21d0	0.3068986
11	0xbee694fd	-0.45035544
12	0xbe850a48	-0.25984406
13	0xbdee7e20	-0.1164515
14	0xbdec1b44	-0.11528638
15	0x3daf5955	0.085619606
16	0xbde52016	-0.111877605
17	0xbdf3606d	-0.11883626
18	0xbe88c93a	-0.26716024
19	0x3e8cb4c0	0.2748165
20	0x3d3988ac	0.045296356
21	0x3d795f49	0.060881887
22	0x3dbfd7a2	0.093673006
23	0x3e80f6ea	0.2518838
24	0x3e68e900	0.22745132
25	0x3e010f15	0.1260341
26	0xbdd1ddcc	-0.102473825
27	0xbe536f14	-0.20647842
28	0xbe43c2bb	-0.19117253
29	0xbe263d00	-0.16234207
30	0x3e2fcf28	0.17168868
31	0x3dba6677	0.09101575
32	0x3e6a5f92	0.2288802
33	0xbe325d7f	-0.17418478
34	0xbda3f930	-0.08006513
35	0x3c8fa70e	0.017535713
36	0xbe5d3779	-0.21603192
37	0x3e0543f1	0.13014199
38	0xbd88cea5	-0.06680039
39	0xbd84c56b	-0.06482967
40	0x3df1e351	0.11810935
41	0xbce1ef46	-0.027579915
42	0x3de4e1ea	0.11175902
43	0xbe9f209e	-0.31079572
44	0xbeb8b1de	-0.36073202
45	0xbc67b5cf	-0.014142468
46	0x3ee7be60	0.45262432
47	0xbe720915	-0.23636277
48	0xbe5d36fc	-0.21603006
49	0xbe72e657	-0.2372068
50	0xbd6c8e4e	-0.0577529
51	0xbe582710	-0.21108651
52	0x3e560d03	0.20903401
53	0xbe1f69d4	-0.15567714
54	0x3e399c43	0.18126015
55	0xbc9f3ef3	-0.019439196
56	0x3e523f61	0.2053199
57	0x3dd798f2	0.10527219
58	0xbe2df841	-0.16989233
59	0xbe909805	-0.28240982
60	0x3e8db2e2	0.2767554
61	0xbe9e70e1	-0.30945495
62	0x3d995afa	0.074880555
63	0xbc600d7c	-0.01367509
64	0x3e77f1a9	0.2421328
65	0xbcb85778	-0.022502646
66	0x3e7be5db	0.24599402
67	0xbdebb83d	-0.1150975
68	0x3e473960	0.1945548
69	0xbcdf9af5	-0.027295569
70	0x3e57201e	0.21008345
71	0xbcca86e7	-0.02472253
72	0xbe99539a	-0.29946595
73	0xbe4c0ff7	-0.19927965
74	0x3dbb444a	0.091438845
75	0x3e5a18e2	0.21298555
76	0xbe65a5b3	-0.2242649
77	0x3e5e3267	0.21698914
78	0x3dda2095	0.10650746
79	0xbdb08691	-0.086194165
80	0xbd5623db	-0.05228029
81	0xbe89b3fe	-0.26895136
82	0xbdb9e1fc	-0.09076306
83	0x3b877cff	0.0041347737
84	0x3e3abb4c	0.1823551
85	0xbe855f11	-0.26049092
86	0x3e057557	0.13033043
87	0x3e14f24e	0.14545557
88	0xbe14f054	-0.14544803
89	0xbdf3f2ef	-0.1191157
90	0xbd359cb1	-0.044338886
91	0x3da09a1f	0.07841896
92	0xbd764702	-0.060126312
93	0x3dc6984f	0.09697019
94	0x3e13fea7	0.14452611
95	0xbe24e8f3	-0.16104488
96	0xbe0da4bb	-0.13832371
97	0x3b1a3d44	0.0023535052
98	0x3e0d3a70	0.13791823
99	0x3e79bc4e	0.24388239
100	0x3dae2fb3	0.08505192
101	0x3db6eaa1	0.08931471
102	0x3dd2bbda	0.10289736
103	0x3e369f0c	0.17834109
104	0x3dfe56eb	0.12418922
105	0x3db131b7	0.086520605
106	0xbe1187e9	-0.14212002
107	0x3e9a9f49	0.3019965
108	0xbdd12d10	-0.10213673
109	0xbe48a1c8	-0.19592965
110	0x3d0d8c7f	0.034557816
111	0x3cf92ec8	0.030417815
112	0xbba904d7	-0.0051580477
113	0xbe670f36	-0.22564396
114	0xbd9f2df6	-0.07772438
115	0xbe09e511	-0.13466288
116	0x3e156915	0.14590867
117	0x3c9192c0	0.017770171
118	0x3d8da93e	0.06917046
119	0x3dbfb204	0.09360126
120	0x3e04aed5	0.12957318
121	0x3d4e0dc9	0.050306115
122	0xbef29381	-0.47378162
123	0x3e0f0789	0.13967718
124	0xbeb0e716	-0.34551305
125	0xbe054403	-0.13014226
126	0x3e755f6b	0.2396218
127	0x3bafecf1	0.005368822
128	0xb9d0470f	-0.00039725794
129	0xbde629d7	-0.11238449
130	0x3e1315fd	0.14363857
131	0x3dc48227	0.09595137
132	0x3e50ea2c	0.2040183
133	0xbe6756b5	-0.2259167
134	0x3e1f8a06	0.15579996
135	0x3dcf8ec5	0.10134653
136	0x3e8a539e	0.2701692
137	0xbe11825a	-0.14209881
138	0x3ed26086	0.41089267
139	0x3b3f0f42	0.0029153381
140	0xbe053d18	-0.13011587
141	0xbe1e1e82	-0.15441325
142	0x3d044ff4	0.03230281
143	0x3e9aadd3	0.30210742
144	0x3d9661c2	0.073428646
145	0xbedde10e	-0.43335766
146	0xbdddab3c	-0.10823676
147	0x3cd95d3e	0.02653372
148	0xbdd3d231	-0.10342825
149	0xbf1f45ce	-0.6221589
150	0x3d0c00bf	0.0341804
151	0x3d67e6bb	0.056616526
152	0xbef00038	-0.46875167
153	0xbee2c86f	-0.44293544
154	0xbc6e4bc9	-0.014544436
155	0x3dff5ce1	0.12468887
156	0x3dc41182	0.09573652
157	0x3e8fb9bd	0.28071395
158	0x3d0c4bd3	0.034252
159	0x3e28bbc2	0.16477874
160	0x3dc1213c	0.09430167
161	0x3d9535ca	0.0728565
162	0x3e18b44f	0.14912532
163	0xbdccad4d	-0.09993992
164	0xbc12909a	-0.0089456085
165	0xbe070bd4	-0.13188106
166	0x3e6ed425	0.23323114
167	0x3b1ca246	0.0023900433
168	0xbd9988c4	-0.07496789
169	0x3ea25484	0.31705105
170	0xbcc9a509	-0.024614828
171	0xbd411327	-0.047137406
172	0xbe121af8	-0.142681
173	0xbdb6df1a	-0.08929272
174	0x3ef1d4ec	0.4723276
175	0x3dfa2500	0.122140884
176	0xbe0925d6	-0.1339334
177	0xbd7256f2	-0.05916495
178	0xbeade7ce	-0.33965915
179	0xbde29107	-0.11062818
180	0xbeab7dad	-0.3349432
181	0xbe873af7	-0.26412174
182	0xbe0adcdc	-0.13560814
183	0xbe1949fa	-0.14969626
184	0xbe0cee7e	-0.13762853
185	0xbd08827f	-0.033327576
186	0xbe53e6a3	-0.2069345
187	0xbf1e3472	-0.61798775
188	0x3e02d6e7	0.12777291
189	0xbd9ce786	-0.07661347
190	0xbb8c3b99	-0.0042795655
191	0xbd38d79b	-0.045127492
192	0xbe3a982d	-0.18222113
193	0x3e27ef2b	0.16399829
194	0x37fe7a7f	3.0336201e-05
195	0x3e07991f	0.13242005
196	0xbb9bb51d	-0.004751815
197	0x3e0da16c	0.13831109
198	0x3e0157fd	0.12631221
199	0xbd0447ce	-0.03229504
200	0x3e524a20	0.20536089
201	0x3e09a045	0.13440044
202	0x3e1677dd	0.14694162
203	0xbbdb55aa	-0.0066935616
204	0xbd88d537	-0.066812925
205	0x3e5b9ee4	0.2144733
206	0x3da2f0be	0.07956074
207	0x3c3eff48	0.0116575435
208	0xbecaa8d2	-0.39581925
209	0xbe688fc9	-0.227111
210	0x3e22b5dd	0.15889688
211	0x3e27a115	0.16370042
212	0x3dd17107	0.102266364
213	0x3dd74b2d	0.105123855
214	0x3eb0389a	0.34418184
215	0xba2430de	-0.00062633853
216	0xbe9a331d	-0.3011712
217	0xbd5688d8	-0.052376598
218	0x3d6e1e8d	0.058134604
219	0xbed7b07a	-0.42126828
220	0x3defd91f	0.117113344
221	0xbe6dc7e6	-0.23220786
222	0x3db7834f	0.08960592
223	0xbea3bbed	-0.31979313
224	0xbd8d9b42	-0.06914379
225	0xbd2ca82f	-0.04215258
226	0xbe27d4c0	-0.16389751
227	0x3e176e85	0.14788254
228	0xbe004c19	-0.12529029
229	0x3e2597ce	0.1617119
230	0x3c4bcdaf	0.0124391755
231	0xbe8c108a	-0.27356368
232	0xbe4c486d	-0.19949503
233	0xbde6bf7f	-0.11266994
234	0x3cf38fd9	0.029731678
235	0xbe1f5922	-0.15561345
236	0x3e293b1b	0.16526453
237	0xbdca6c22	-0.09883906
238	0x3e31cd87	0.17363559
239	0xbe8f4188	-0.27979684
240	0x3e1ebd19	0.15501823
241	0x3e657a10	0.22409844
242	0xbe7abcfc	-0.24486154
243	0x3e283ca0	0.16429377
244	0x3c4dc541	0.012559236
245	0xbee85998	-0.45380855
246	0x3e063962	0.13107827
247	0x3b11dcc5	0.0022256833
248	0x3e086d64	0.13322979
249	0xbec5bdba	-0.38621312
250	0xbee19cc2	-0.4406491
251	0xbe20f780	-0.15719414
252	0xbe923a29	-0.28559998
253	0xbef504b4	-0.4785515
254	0xbd29e2f0	-0.04147619
255	0xbce32e77	-0.027732117

block2.branch1x1.conv.bias f4 [16]
0	0x3e216088	0.1575948
1	0xbe8873e6	-0.26650923
2	0xbdbedcc6	-0.09319453
3	0xbcd357d4	-0.025798716
4	0x3e967d35	0.293924
5	0x3ea55b56	0.32296246
6	0x3e9eeb1a	0.31038743
7	0x3e6fcfb3	0.23419075
8	0x3ea50dfa	0.32237226
9	0x3d05479f	0.032539006
10	0x3e2883b7	0.16456495
11	0x3e1b25ae	0.15151092
12	0xbb8ae65c	-0.0042388868
13	0x3ed45290	0.4146924
14	0xbded21f7	-0.11578744
15	0xbcfa942d	-0.030588234

block2.branch3x3.0.conv.weight f4 [24, 64, 1, 1]
0	0x3b15846b	0.0022814523
1	0x3cfd52eb	0.030923327
2	0x3dc132a2	0.094334856
3	0x3df9bc20	0.12194085
4	0x3e26d958	0.16293848
5	0xbdf57fe5	-0.119872846
6	0xbdacfcd3	-0.0844666
7	0xbe4f4aa5	-0.20243318
8	0x3d71f512	0.059071608
9	0x3e6b45b0	0.22975802
10	0xbe3f6846	-0.18692121
11	0xbdb0884a	-0.08619745
12	0x38eea342	0.000113791335
13	0x3e9da390	0.3078885
14	0x3e9187f0	0.28424025
15	0xbea12b59	-0.31478384
16	0x3db09812	0.08622755
17	0xbe61cfcf	-0.22051929
18	0x3b121a56	0.002229353
19	0x3e48d29d	0.19611593
20	0xbda6acde	-0.081384405
21	0x3d0cb3bc	0.034351096
22	0xbeb7e9f4	-0.3592068
23	0xbe31ed57	-0.17375694
24	0x3e7fd5b0	0.24983859
25	0xbecdc1f8	-0.4018705
26	0xbe1e3547	-0.15450011
27	0x3cdc2d3b	0.026877036
28	0x3d356aa5	0.044291157
29	0xbe8d0f9f	-0.2755098
30	0x3e964499	0.2934921
31	0xbdbf63bf	-0.09345197
32	0x3d479563	0.04872645
33	0x3eef47c8	0.46734452
34	0xbe3ed63d	-0.18636413
35	0xbe0bbe73	-0.1364687
36	0xbcc2ec70	-0.023794383
37	0x3e126733	0.1429718
38	0xb9803f75	-0.00024461342
39	0xbe73aed3	-0.23797159
40	0xbd59b843	-0.05315424
41	0xbe5b2f30	-0.2140472
42	0x3d839959	0.06425733
43	0xbe83ac96	-0.2571761
44	0x3edcfbec	0.4316095
45	0x3d4b0eca	0.04957465
46	0xbf03e77f	-0.5152511
47	0x3e687ba4	0.22703415
48	0xbd4a7b9c	-0.04943429
49	0x3e34de70	0.17662978
50	0xbdb82a49	-0.0899244
51	0x3cab746e	0.020929541
52	0xbdc11185	-0.0942717
53	0xbda47e06	-0.080318496
54	0x3e2fb5c7	0.17159186
55	0xbebd462a	-0.36967593
56	0xbea2c9c8	-0.31794572
57	0xbe1b14c8	-0.15144646
58	0xbd1ccee8	-0.03828326
59	0x3d8c9dbe	0.068660244
60	0xbe6029c2	-0.2189093
61	0x3dc58fe3	0.09646585
62	0xbe370e34	-0.17876512
63	0x3db1f75f	0.086897604
64	0x3cd6515c	0.026161842
65	0xbb835901	-0.004008413
66	0xbbe69d0b	-0.007037764
67	0xbdb99838	-0.090622365
68	0xbd21f3ab	-0.03953902
69	0x3e3ebbcb	0.18626325
70	0xbd076786	-0.033057712
71	0xbd36a9b6	-0.044595443
72	0x3dc99059	0.09841985
73	0x3d196ace	0.037455373
74	0xbd191e10	-0.037382185
75	0xbcd2d7a3	-0.02573759
76	0xbe8cc802	-0.27496344
77	0xbeb2d7e2	-0.3493033
78	0xbeba97e4	-0.36444008
79	0xbe31f62b	-0.17379062
80	0x3dc4ae82	0.09603597
81	0xbd7cf645	-0.0617583
82	0xbc5b2f37	-0.013377956
83	0xbe3517c6	-0.1768485
84	0x3d86d5c2	0.0658374
85	0xbec61508	-0.3868792
86	0xbd0a4a97	-0.03376254
87	0xbd1ee176	-0.038789235
88	0x3de1944b	0.11014613
89	0x3ed206ed	0.4102091
90	0xbca3ec18	-0.02001004
91	0xbd3b3db2	-0.045713134
92	0xbe053ebc	-0.13012213
93	0x3e8dcb54	0.2769419
94	0xbe4a15cb	-0.19734876
95	0x3ca0521a	0.0195704
96	0xbc9139d4	-0.01772777
97	0x3da603ab	0.08106168
98	0x3c950433	0.018190479
99	0x3e00de27	0.12584744
100	0xbd9cf8dc	-0.07664654
101	0x3dcdab44	0.10042432
102	0x3de69ba5	0.112601556
103	0xba38af79	-0.00070451904
104	0x3cf0de1c	0.029402785
105	0xba832716	-0.0010006155
106	0x3e109f9e	0.14123389
107	0x3e4a5aaf	0.19761156
108	0x3e305565	0.17220075
109	0xbeb885e3	-0.36039647
110	0xbdd9528c	-0.10611448
111	0x3d3f38f4	0.046685174
112	0xbe1050d6	-0.14093336
113	0x3e5bd274	0.21467
114	0xbe74492c	-0.23856038
115	0xbdf60c7f	-0.12014102
116	0xbdf91014	-0.1216127
117	0x3d51e538	0.05124399
118	0xbe402c97	-0.1876701
119	0x3e0d98b7	0.13827787
120	0xbeb62d2e	-0.35581344
121	0xbd5d7d02	-0.054074295
122	0xbea40f4a	-0.32042915
123	0xbe05ebd9	-0.1307825
124	0x3d05e786	0.0326915
125	0xbe8ffc09	-0.28121975
126	0x3e02ca04	0.12772375
127	0xbdd81824	-0.105514795
128	0x3dc59658	0.096478164
129	0x3d97ab19	0.07405681
130	0x3e40e772	0.1883829
131	0x3e9f3a3c	0.31099117
132	0xbf131586	-0.5745472
133	0xbe6f9f5a	-0.23400632
134	0xbe94247b	-0.28934082
135	0x3d88df5f	0.0668323
136	0xbe179914	-0.14804488
137	0xb8433503	-4.6540994e-05
138	0x3de4f2a1	0.1117909
139	0xbede8c62	-0.4346648
140	0x3e6b9f81	0.23010065
141	0x3dce318e	0.100680456
142	0xbdfb9e69	-0.12286074
143	0x3e2fac5c	0.17155594
144	0xbe0ec64f	-0.13942836
145	0x3db0f6c5	0.086408176
146	0x3e2a5ec6	0.16637716
147	0x3e33d60d	0.17562123
148	0x3ce78cd1	0.028265389
149	0x3d6d700e	0.05796819
150	0x3d001a0e	0.031274848
151	0xbdac1b83	-0.08403685
152	0x3e2e0f8d	0.1699812
153	0x3cb66972	0.022267077
154	0xbe110744	-0.14162928
155	0xbdd1260e	-0.102123365
156	0x3d975ee6	0.07391147
157	0x3e33671f	0.17519806
158	0xbe380226	-0.1796957
159	0xbcca95ce	-0.024729636
160	0x3e029aae	0.12754318
161	0x3e57168d	0.21004696
162	0xbd3a626c	-0.04550402
163	0x3d92a692	0.07160677
164	0xbe4b8f64	-0.19878918
165	0x3d2d9a6c	0.042383596
166	0xbe279925	-0.16367014
167	0x3d2e3d01	0.042538647
168	0xbe9554dc	-0.29166305
169	0xbdcd68f0	-0.10029781
170	0x3e23e76f	0.16006254
171	0xbed2f837	-0.41204998
172	0xbe416018	-0.18884313
173	0x3d87c077	0.06628507
174	0xbd8e5d36	-0.06951372
175	0x3d8d3b97	0.068961315
176	0xbd0bc9b7	-0.034127917
177	0xbdb3850b	-0.0876561
178	0x3e936b63	0.28792867
179	0xbcdfcab0	-0.027318329
180	0x3dbe7668	0.09299928
181	0xbd1e01bb	-0.03857587
182	0x3da0cbd0	0.07851374
183	0xbe8adcc2	-0.2712155
184	0x3b7d944c	0.0038693128
185	0xbe63fee2	-0.22265199
186	0x3e196971	0.14981629
187	0x3d59cb34	0.053172305
188	0x3e5c37c4	0.21505648
189	0xbdeae86c	-0.11470112
190	0xbe7543c8	-0.23951638
191	0xbdfe559f	-0.12418675
192	0x3eaaa2c7	0.33327314
193	0xbd54e7fc	-0.05197905
194	0xbe7318bf	-0.23739909
195	0xbe922c9d	-0.28549662
196	0xbe0a94b7	-0.13533293
197	0x3d3dc39d	0.04632913
198	0x3d9e10ba	0.07718034
199	0xbdc60958	-0.09669751
200	0x3e1a7e57	0.15087257
201	0xbe97924e	-0.2960381
202	0x3e207183	0.15668301
203	0xbe5a5544	-0.21321589
204	0xbdea78c1	-0.11448813
205	0xbdacec0b	-0.08443459
206	0x3e816b55	0.252772
207	0xbe4d589f	-0.20053338
208	0xbdc5eac4	-0.096639186
209	0xbaf8adaf	-0.001897266
210	0x3e3d73d1	0.18501212
211	0xbdd54307	-0.10413175
212	0xbdd21195	-0.1025726
213	0xbda1849b	-0.078866206
214	0xbe4925ef	-0.19643377
215	0xbe1f7379	-0.15571393
216	0x3e809754	0.25115454
217	0xbe43e649	-0.19130816
218	0x3d444536	0.047917567
219	0x3d6fc3e6	0.058536433
220	0x3e1528df	0.14566372
221	0x3d523724	0.051322117
222	0x3e3d9c1c	0.18516582
223	0x3e1bc5f1	0.15212227
224	0x3d7d9806	0.06191256
225	0xbdb1bc5b	-0.08678504
226	0x3da192cb	0.07889327
227	0xbd326f22	-0.043563016
228	0x3d642b4a	0.055705346
229	0x3cd7c4f8	0.02633904
230	0xbe28fcf6	-0.16502747
231	0x3dda29e0	0.10652518
232	0x3e52c015	0.20581086
233	0xbd67245a	-0.056431152
234	0x3de0d39d	0.10977862
235	0xbd57b1d3	-0.05265982
236	0x3e78e327	0.24305402
237	0xbdfc9e2e	-0.12334858
238	0x3e0e9ea0	0.13927698
239	0x3e49d344	0.19709498
240	0xbd858020	-0.065185785
241	0x3d9d4dc6	0.0768085
242	0x3c6e55bc	0.014546808
243	0xbd2b0932	-0.041756816
244	0x3e037350	0.12836957
245	0xbe307d8a	-0.1723539
246	0xbd9a8348	-0.07544571
247	0xbe1c3037	-0.15252768
248	0xbdc6c0c2	-0.097047344
249	0x3e92a0d0	0.28638315
250	0xbe27521a	-0.16339913
251	0x3de36a2e	0.111042365
252	0x3d8bce48	0.068264544
253	0x3e31f442	0.17378333
254	0xbded6932	-0.1159233
255	0xbe397fd0	-0.18115163

block2.branch3x3.0.conv.bias f4 [24]
0	0x3e6666ce	0.22500154
1	0x3c31db8c	0.010855567
2	0xbe9cbc70	-0.30612516
3	0x3e15759a	0.14595643
4	0xbe076c44	-0.13224894
5	0xbe160085	-0.14648636
6	0x3e291478	0.16511714
7	0xbe62af73	-0.22137241
8	0x3e0b4817	0.13601719
9	0xbdab81ec	-0.0837439
10	0x3d64694c	0.05576448
11	0xbd8f4a4e	-0.06996594
12	0xbc833713	-0.016017472
13	0x3cf6b9ba	0.030117858
14	0xbec747c2	-0.38921934
15	0xbdc803ad	-0.09766326
16	0xbe0eb79e	-0.13937232
17	0x3e2ae600	0.166893
18	0xbe084f4e	-0.13311502
19	0x3e62848b	0.22120874
20	0xbdd0ac0c	-0.10189065
21	0xbd8280c3	-0.063722156
22	0xbd0a0b86	-0.033702396
23	0x3e0b5bbc	0.13609213

block2.branch3x3.1.conv.weight f4 [32, 24, 3, 3]
0	0xbe0e4e31	-0.13897015
1	0xbc30db53	-0.0107944785
2	0x3e080ccb	0.1328613
3	0xbe9de0cb	-0.30835566
4	0xbe9b0df9	-0.30284098
5	0xbf06d170	-0.52663326
6	0xbe9d2dc7	-0.30698988
7	0xbf0ad790	-0.5423517
8	0xbf099b35	-0.5375245
9	0xbc1d4366	-0.009598589
10	0x3c0b7512	0.008511798
11	0x3d987e8a	0.074460104
12	0x3e58a3e4	0.2115627
13	0xbd013fc1	-0.03155494
14	0x3e015db7	0.12633406
15	0x3dfa2330	0.12213743
16	0xbd09e661	-0.033666972
17	0x3d1a0518	0.037602514
18	0x3ddb3453	0.107033394
19	0xbc9c6629	-0.019091683
20	0x3ddc51ef	0.10757815
21	0xbe627fc1	-0.22119047
22	0xbe0c7ec0	-0.13720226
23	0xbd5062f0	-0.050875604
24	0xbed2de05	-0.41185012
25	0xbbcac347	-0.0061878297
26	0xbc6d4725	-0.014482294
27	0xbe35c693	-0.17751531
28	0xbe0459a7	-0.12924825
29	0x3dbcd180	0.092196465
30	0xbdb33117	-0.087495975
31	0xbe23aac0	-0.15983105
32	0x3b2911a8	0.0025797877
33	0xbe1bf046	-0.15228376
34	0x3d2e68ec	0.04258053
35	0xbd8988aa	-0.0671552
36	0xbbdb89ef	-0.0066997926
37	0x3da9f86d	0.082993366
38	0x3e62aea7	0.22136937
39	0xbda5341f	-0.08066582
40	0xba93b1cb	-0.0011268196
41	0x3dd09933	0.101854704
42	0xbe17cc11	-0.14823939
43	0xbd890d32	-0.0669197
44	0x3e062598	0.13100278
45	0x3e680706	0.22658929
46	0xbe01a4d8	-0.12660539
47	0x3e2a4356	0.16627249
48	0x3cea3069	0.028587537
49	0xbdc65584	-0.096842796
50	0xbdbf15de	-0.09330343
51	0x3ca48434	0.02008257
52	0xbd920a92	-0.071309224
53	0xbe92745b	-0.28604397
54	0x3e122633	0.14272384
55	0x3d87912f	0.066194884
56	0xbc4c36ac	-0.012464207
57	0xbdfa22a5	-0.12213639
58	0x3db83a75	0.08995525
59	0xbd1a4c53	-0.037670445
60	0xbe9c5a15	-0.30537477
61	0xbd707681	-0.058706764
62	0xbda5b20a	-0.08090599
63	0xbdd7eb10	-0.105428815
64	0xbe03d3c0	-0.12873745
65	0x3d2308df	0.039803382
66	0xbe4b6160	-0.19861364
67	0xbe4e156c	-0.2012536
68	0xbda58a7e	-0.08083056
69	0xbe8ed916	-0.27899998
70	0xbe8e541e	-0.2779855
71	0xbe4f424f	-0.20240138
72	0xbc5ee224	-0.013603721
73	0x3e12afa4	0.14324814
74	0x3ecb58c7	0.3971617
75	0x3d4869b1	0.04892892
76	0x3e4e516f	0.20148252
77	0x3eccda70	0.40010405
78	0xbebf7d61	-0.37400344
79	0x3e2a30ba	0.1662015
80	0x3ea5d31b	0.32387623
81	0x3e20dd4d	0.1570942
82	0x3d01b2ac	0.031664535
83	0xbe109cbf	-0.14122294
84	0x3e204fd2	0.15655449
85	0x3e080053	0.13281374
86	0xbd429961	-0.047509555
87	0xbe159259	-0.14606608
88	0xbe0d8450	-0.13820004
89	0xbe262d88	-0.16228306
90	0xbe7734ed	-0.24141283
91	0xbe21b8a6	-0.15793094
92	0xbe2bb2ab	-0.16767375
93	0x3bf8853e	0.007584243
94	0x3bee679f	0.007275536
95	0xbd33c20c	-0.04388623
96	0x3e90a308	0.28249383
97	0x3e806aca	0.25081474
98	0x3e063723	0.1310697
99	0x3e3829a2	0.17984632
100	0x3e55d935	0.20883639
101	0x3d4d9d17	0.05019864
102	0xbd44c51d	-0.048039544
103	0xbe040d59	-0.12895717
104	0xbe6cac92	-0.23112705
105	0xbe84dfe7	-0.25952074
106	0xbe27e487	-0.1639577
107	0xbe911e25	-0.2834331
108	0xbeb628ca	-0.35577995
109	0xbebb5fdc	-0.36596572
110	0xbe2c4ecd	-0.16826935
111	0xbe1a4572	-0.15065554
112	0xbc55ba8d	-0.013044965
113	0x3c4963b2	0.012291836
114	0x3e07113d	0.1319017
115	0x3e135771	0.14388825
116	0x3d83d9a9	0.06438
117	0x3c8ca720	0.017169535
118	0x3e073a8a	0.13205925
119	0x3e4611ef	0.19342779
120	0xbd59aa47	-0.053140905
121	0xbdeaf8ff	-0.114732735
122	0x3c676036	0.01412206
123	0xbef0766f	-0.46965358
124	0xbdc4679b	-0.09590074
125	0xbd318849	-0.043342862
126	0xbe217015	-0.15765412
127	0x3d52d767	0.051474955
128	0xbde05ab9	-0.10954804
129	0x3d764ea5	0.060133595
130	0x3bd340c7	0.006446931
131	0xbce32f77	-0.027732594
132	0xbddc395c	-0.10753128
133	0xbc8db1bd	-0.017296666
134	0x3d81c758	0.0633685
135	0x3d8e1e8c	0.0693942
136	0xbde92a05	-0.11384968
137	0x3cffbad7	0.031217022
138	0x3df102cc	0.117681116
139	0xbdce5800	-0.100753784
140	0xbd2ef677	-0.042715516
141	0xbddff302	-0.10935022
142	0xbd76ed3c	-0.060284838
143	0xbe9223fb	-0.28543076
144	0x3e4019a8	0.18759787
145	0xbcc181ef	-0.023621527
146	0x3d38aecf	0.045088585
147	0xbd955d04	-0.07293132
148	0xbe9e467b	-0.30913147
149	0xbeae8aa1	-0.3409014
150	0xbe52b3dc	-0.20576423
151	0x3d998da7	0.07497721
152	0x3d9b5914	0.0758535
153	0x3e13a6d5	0.1441911
154	0x3d48dc1f	0.04903805
155	0x3c26dc38	0.01018434
156	0xbc271470	-0.010197744
157	0xbd8749eb	-0.066058956
158	0xbd1bd9da	-0.038049556
159	0xbd22a6b5	-0.039709765
160	0x3d78e459	0.060764644
161	0xbe1d8208	-0.15381634
162	0xbd9753c1	-0.07389022
163	0xbdea4c0b	-0.11440285
164	0x3eaa2423	0.33230695
165	0xbe293074	-0.1652239
166	0x3e1f2db8	0.15544784
167	0x3e9511d7	0.29115173
168	0xbe240dc7	-0.1602088
169	0xbe5b3cbb	-0.21409886
170	0x3c797ad9	0.015227043
171	0x3db65332	0.08902587
172	0xbed9ab16	-0.4251334
173	0xbe94cb55	-0.2906138
174	0x3e93432a	0.2876218
175	0x3e186f92	0.1488631
176	0x3d5d1fcc	0.053985402
177	0xbd39ae98	-0.04533252
178	0x3e010056	0.12597784
179	0xbe8f3b2b	-0.2797483
180	0x3c889d07	0.016676439
181	0x3d70568d	0.05867629
182	0x3e173d91	0.1476958
183	0xbe885c63	-0.26632985
184	0xbd84c00b	-0.06481942
185	0x3da27758	0.07932919
186	0xbef2c7f2	-0.4741817
187	0xbeb60107	-0.3554766
188	0x3dc17901	0.09446908
189	0x3dd21595	0.10258023
190	0x3d9922e0	0.07477355
191	0x3e1b9748	0.15194428
192	0xbe80e35d	-0.25173464
193	0xbeb9ecaf	-0.36313388
194	0x3cedaf37	0.029014213
195	0xbf1696cc	-0.5882385
196	0x3d2894d9	0.041157577
197	0x3e45d3eb	0.19319122
198	0xbe46c34c	-0.19410437
199	0xbe6311b1	-0.22174717
200	0x3e924947	0.2857153
201	0xbe6a9e2a	-0.22911897
202	0xbe8b649f	-0.27225205
203	0x3e12a558	0.14320886
204	0xbe9acf7b	-0.3023642
205	0xbdd3ce4a	-0.10342081
206	0x3c4eb60e	0.012616647
207	0x3cc12a3e	0.023579713
208	0x3e0e3651	0.13887908
209	0x3ecd7509	0.40128353
210	0x3da1c83e	0.07899521
211	0x3cee7984	0.029110678
212	0xbd911085	-0.07083229
213	0x3e8e8023	0.27832136
214	0xbdb8f169	-0.0903042
215	0xbe488816	-0.19583163
216	0xbc36ea88	-0.011164315
217	0xbd1e6181	-0.038667206
218	0xbd7a8bba	-0.06116841
219	0xbd779b49	-0.060450826
220	0xbdc666d0	-0.09687579
221	0xbde2edc0	-0.110805035
222	0xbccd8502	-0.025087837
223	0x3cbf03fd	0.023317331
224	0xba56c5ec	-0.0008192945
225	0xbd3d1647	-0.046163823
226	0xbcfffc02	-0.031248096
227	0xbb5e8b54	-0.0033957558
228	0xbda34196	-0.07971494
229	0xbbc8b7fb	-0.006125448
230	0x3a381c6e	0.00070232793
231	0xbdcefb47	-0.10106521
232	0xbd917cd3	-0.071038865
233	0xbda0f23d	-0.07858703
234	0xbcd089d0	-0.02545634
235	0xbd1f5637	-0.03890058
236	0xbd1cd1f4	-0.038286164
237	0xbc4ccb2e	-0.012499614
238	0xbd7f4689	-0.062323127
239	0xbdb79b0e	-0.08965121
240	0xbd17bb0a	-0.03704361
241	0xbde570a0	-0.11203122
242	0x3d32183c	0.043480143
243	0xbc627117	-0.013820908
244	0xbd7ff6e7	-0.062491324
245	0xbd060bfd	-0.032726277
246	0x3c05ffbe	0.0081786495
247	0xbb8e66e3	-0.004345761
248	0xbcae1837	-0.02125178
249	0xbca91dc7	-0.020644082
250	0x3b420d65	0.0029610035
251	0xbd093f28	-0.033507496
252	0xbcc3b994	-0.023892201
253	0xbc75ac80	-0.0149947405
254	0xbce050d4	-0.027382292
255	0xbd90942c	-0.070595115

block2.branch3x3.1.conv.bias f4 [32]
0	0x3e039dd4	0.12853175
1	0xbdc5df9f	-0.09661793
2	0x3e135830	0.1438911
3	0xbdb93cc0	-0.0904479
4	0x3d42910d	0.047501612
5	0xbd1ffaeb	-0.039057653
6	0x3d8c318c	0.06845388
7	0x3c285520	0.010274202
8	0x3dd67e5b	0.10473319
9	0xbd49c652	-0.0492614
10	0x3d20865a	0.039190628
11	0xbe6758f5	-0.22592528
12	0xbe459894	-0.19296485
13	0x3d005121	0.03132737
14	0x3d9f6349	0.07782609
15	0x3dc3d217	0.09561556
16	0x3d7e150d	0.062031794
17	0x3d888d37	0.066675596
18	0xbe17ab80	-0.14811516
19	0x3cdfa76f	0.027301518
20	0x3d96a6b0	0.07356012
21	0x3df61552	0.12015785
22	0xbdc498e3	-0.09599473
23	0xbd5fc651	-0.05463249
24	0x3e643ed3	0.2228959
25	0x3e8ed002	0.27893072
26	0x3d515703	0.05110837
27	0xbe09c4fd	-0.13454051
28	0x3c0524b7	0.008126429
29	0x3e85b4a9	0.26114395
30	0xba040391	-0.0005035932
31	0x3dd2bbaa	0.102897

block2.branch5x5.0.conv.weight f4 [4, 64, 1, 1]
0	0x3e956582	0.29179007
1	0x3d9e5ed6	0.07732932
2	0x39a370fe	0.00031173968
3	0x3d8b4980	0.068011284
4	0xbee079ce	-0.4384293
5	0xbd8b9ba6	-0.06816797
6	0x3eb3c821	0.35113624
7	0xbd9797be	-0.074019894
8	0x3e5957c1	0.21224882
9	0x3ec6280e	0.38702434
10	0xbe3c062c	-0.1836173
11	0xbe1b1107	-0.15143214
12	0x3eb729e2	0.35774142
13	0x3e33a921	0.17544986
14	0x3e3608b9	0.17776765
15	0xbdf1c5f1	-0.118053325
16	0x3c91921c	0.017769866
17	0x3e0e1013	0.1387332
18	0xbd8cb805	-0.068710364
19	0x3d9ee17b	0.07757851
20	0xbba762fc	-0.0051082354
21	0x3e7c32b6	0.2462872
22	0xbcd67b55	-0.026181856
23	0xbe055d21	-0.13023807
24	0x3f0ca62e	0.5494107
25	0x3d950e93	0.072781704
26	0xbd24439a	-0.040103532
27	0xbcc22159	-0.023697542
28	0xb95b5109	-0.00020915655
29	0xbe17a1f5	-0.14807875
30	0x3dbfef43	0.093718074
31	0xbd995eb9	-0.0748877
32	0xbaf3e19a	-0.0018606663
33	0xbe32b8b9	-0.17453279
34	0xbea179c8	-0.31538224
35	0xbd11261c	-0.035436735
36	0xbe381b2a	-0.17979112
37	0x3c2bb57c	0.010480281
38	0xbc9820b9	-0.01857029
39	0x3ed415ab	0.4142278
40	0x3d8ecb60	0.069723845
41	0x3c75d0c2	0.015003385
42	0x3cde143e	0.027109262
43	0xbe2e4c17	-0.17021213
44	0xbe87c9de	-0.265212
45	0x3bd91434	0.006624723
46	0x3e30bac2	0.17258742
47	0xbe797e1c	-0.24364513
48	0x3e139b65	0.14414747
49	0xbdc052de	-0.09390806
50	0xba1040a9	-0.0005502799
51	0xbd8383b0	-0.06421602
52	0x3e9066d9	0.28203467
53	0xbe944fc4	-0.28967106
54	0x3ea11bc9	0.3146651
55	0xbd2502af	-0.040285762
56	0x3cb052b7	0.021523817
57	0x3d96c725	0.073622026
58	0x3d614c2a	0.055004276
59	0xbe5a1369	-0.21296467
60	0x3e85c9e2	0.26130587
61	0x3e69d93f	0.22836779
62	0xbe19b864	-0.15011746
63	0x3c4c5175	0.012470593
64	0x3e83c7ee	0.25738472
65	0xbd7ead73	-0.062177133
66	0xbe9eb872	-0.31000096
67	0x3dd7cdfe	0.10537337
68	0xbeaf5755	-0.34246317
69	0xbdf624c9	-0.12018735
70	0xbe0b17bb	-0.13583271
71	0x3b9a4613	0.0047080605
72	0xbd8e4bcc	-0.06948051
73	0x3e8d482c	0.27594125
74	0xbd17e7b3	-0.0370862
75	0xbe84f5e6	-0.25968856
76	0xbe675bae	-0.22593567
77	0xbca10dbf	-0.019659875
78	0x3e91582a	0.28387576
79	0x3d08852e	0.033330135
80	0xbf31630a	-0.69291747
81	0x3d1e5585	0.038655777
82	0x3d22b69b	0.039724927
83	0xbda79ff2	-0.08184804
84	0xbdeacab3	-0.11464443
85	0x3e9e8323	0.30959424
86	0x3de941b4	0.11389485
87	0xbe89153f	-0.26774022
88	0xbd868584	-0.06568435
89	0x3daf8eee	0.085721835
90	0xbdc78181	-0.09741498
91	0xbe16347f	-0.14668463
92	0x3d96a55c	0.073557585
93	0xbdccbb99	-0.09996719
94	0x3e5312cc	0.20612639
95	0xbf07c2c2	-0.5303155
96	0xbdc7113b	-0.09720083
97	0x3e8d00f7	0.275398
98	0xbe22011b	-0.15820734
99	0x3e88b734	0.26702273
100	0xbe06f5fa	-0.1317977
101	0x3e39f2cc	0.18159026
102	0xbe2ab771	-0.1667154
103	0xbccc8f5b	-0.024970701
104	0xbe2d3e27	-0.1691824
105	0xbecfcdc0	-0.40586662
106	0x3de32443	0.11090901
107	0xbcc94d85	-0.024573097
108	0x3e7da0fe	0.24768445
109	0xbe08dfaf	-0.13366579
110	0xbbff3068	-0.007787753
111	0xbdfebd37	-0.124384336
112	0x3e085370	0.13313079
113	0xbe189b91	-0.14903094
114	0x3e6de6fc	0.23232645
115	0xbe41745e	-0.18892047
116	0xbe007c2f	-0.12547372
117	0x3e11ceb9	0.14239015
118	0x3ccdf3b0	0.025140613
119	0x3dc2b9c5	0.09508089
120	0xbe0fe833	-0.1405342
121	0xbec771db	-0.38954052
122	0x3d33353b	0.043751936
123	0x3c6a3efe	0.014297245
124	0xbe88f3fe	-0.2674865
125	0xbea7ea48	-0.3279593
126	0x3d8fb0f5	0.07016174
127	0x3d3360b5	0.0437934
128	0xbe8712bd	-0.26381484
129	0xbec1f979	-0.37885645
130	0x3cf2dffd	0.029647822
131	0x3e0f44f8	0.13991153
132	0xbf11d815	-0.5697034
133	0xbd5477bd	-0.051872004
134	0xbe8d1feb	-0.27563414
135	0x3d9a59ff	0.07536697
136	0xbee38999	-0.44440916
137	0xbedc2452	-0.4299646
138	0xbe4c863e	-0.19973084
139	0xbefb7aab	-0.49117026
140	0x3f02eb46	0.5114025
141	0xbc9d6395	-0.019212523
142	0xbc8e211f	-0.017349778
143	0xbe4975f0	-0.19673896
144	0x3e1ff8ec	0.156223
145	0x3e6eb4ba	0.23311129
146	0xbe8a6ab2	-0.27034527
147	0xbcc1ec94	-0.02367238
148	0x3e3cde73	0.18444233
149	0x3e02eeee	0.12786457
150	0xbe9d87d6	-0.30767697
151	0xbe3ffcce	-0.18748781
152	0xba38c334	-0.00070481305
153	0x3e91ab8c	0.28451192
154	0x3ecdd193	0.40198955
155	0xbe8f1819	-0.27948073
156	0xbe4ab678	-0.19796169
157	0xbe8a65b2	-0.27030712
158	0x3e8809e5	0.2657005
159	0x3d05725a	0.032579757
160	0x3e08a65b	0.1334471
161	0xbe0d780c	-0.13815325
162	0x3e2bcca4	0.16777283
163	0xbe048d8d	-0.12944622
164	0x3dcc0035	0.09960977
165	0xbdab103c	-0.08352706
166	0xbe4d863d	-0.20070739
167	0xbe9451e5	-0.2896873
168	0xbe4974fc	-0.19673532
169	0xbe40c425	-0.18824823
170	0x3c29a770	0.010354862
171	0xbd32ef0e	-0.04368501
172	0x3dc91b84	0.09819701
173	0x3e22c7f3	0.15896587
174	0x3d4c8999	0.04993591
175	0xbe149ab6	-0.14512143
176	0x3e451a61	0.19248344
177	0xbe90804c	-0.28222883
178	0x3e03b7de	0.12863109
179	0x3e10d7f5	0.14144881
180	0xbe094dc7	-0.13408576
181	0x3d88020c	0.066410154
182	0x3e747b71	0.23875214
183	0xbd6c7614	-0.057729796
184	0xbdc51cc0	-0.09624624
185	0xbe9c96e9	-0.30583885
186	0x3e33f05d	0.1757216
187	0x3e831ef3	0.2560955
188	0xbe749867	-0.23886262
189	0xbd6ce674	-0.057836965
190	0xbdaf6bf9	-0.08565516
191	0xbdd8d6f1	-0.10587872
192	0xbf091970	-0.5355444
193	0x3e2f0dc6	0.17095098
194	0xbdc40c02	-0.09572603
195	0x3d743c36	0.059627734
196	0xbe1987aa	-0.14993158
197	0x3db97339	0.0905518
198	0xbeb52f79	-0.3538778
199	0x3e12156f	0.14265989
200	0x3e8bf6e2	0.27336794
201	0x3f05a18f	0.52199644
202	0xbda6c1cc	-0.081424326
203	0xbd426780	-0.047461987
204	0xbda74269	-0.081669636
205	0x3e0fd1f5	0.14044936
206	0x3da553c2	0.08072616
207	0xbdb0abc5	-0.086265124
208	0x3e9ac721	0.30230048
209	0xbe4f6967	-0.20255052
210	0xbe443ec5	-0.1916457
211	0x3e6aef81	0.22942926
212	0xbc6f2a9f	-0.014597564
213	0x3df6576a	0.12028392
214	0xbda0f0d4	-0.07858434
215	0x3cba8c12	0.022771869
216	0xbdb9938c	-0.090613455
217	0xbcd95157	-0.026528044
218	0xbef60568	-0.48051
219	0xbda64f30	-0.081205726
220	0x3e2d8035	0.16943438
221	0xbd942f4f	-0.07235586
222	0x3d4d5cad	0.05013721
223	0xbedc4e2b	-0.43028387
224	0xbdc4acc7	-0.09603267
225	0x3e3ce9be	0.1844854
226	0xbc872f66	-0.016502094
227	0xbdbe459b	-0.0929062
228	0xbe0992b8	-0.13434875
229	0x3e6a4e02	0.2288132
230	0xbc14d5ca	-0.009084174
231	0x3e5e76f0	0.21725059
232	0xbec4fe0b	-0.3847507
233	0xbe9954f4	-0.29947627
234	0x3dc4054f	0.09571325
235	0xbe872c37	-0.2640092
236	0xbe92b40f	-0.28653
237	0xbe1c0905	-0.15237816
238	0xbe7c7531	-0.2465408
239	0xbde97d98	-0.11400908
240	0x3e36464f	0.17800258
241	0xbcc35978	-0.023846373
242	0x3e02343f	0.12715243
243	0x3b8a0027	0.004211444
244	0xbea77b27	-0.32711145
245	0x3e40a5a4	0.18813187
246	0x3cbf64a3	0.023363417
247	0x3ca158d7	0.019695682
248	0x3d899b71	0.06719101
249	0xbe853c8d	-0.2602276
250	0xbc9fa2dd	-0.019486839
251	0xbe13074a	-0.1435825
252	0x3db48de1	0.08816124
253	0x3d26bc51	0.040706936
254	0x3d68ceca	0.056837834
255	0x3cc641e7	0.024201347

block2.branch5x5.0.conv.bias f4 [4]
0	0xbe019c66	-0.12657318
1	0x3e74d194	0.23908073
2	0x3e049451	0.12947203
3	0xbd3a8149	-0.045533452

block2.branch5x5.1.conv.weight f4 [8, 4, 5, 5]
0	0xbc5c7a2f	-0.013456865
1	0xbdf212c4	-0.118199855
2	0xbd950728	-0.072767556
3	0x3e795e1c	0.24352306
4	0x3cd95f9d	0.02653485
5	0x3d1bd164	0.038041487
6	0xbd09adaf	-0.033612903
7	0x3dd32200	0.10309219
8	0xbce0ff43	-0.027465468
9	0xbe8e2c4a	-0.27768165
10	0x3dfb835a	0.12280913
11	0xbdb2ae26	-0.087246224
12	0xbe45663f	-0.19277285
13	0xbf2c390b	-0.6727454
14	0x3e572e91	0.21013857
15	0xbb9390a4	-0.0045033265
16	0xbe0d7964	-0.13815838
17	0xbe1a4219	-0.15064277
18	0x3dd5cf48	0.104399264
19	0x3e324b2b	0.17411487
20	0xbd87ffa5	-0.06640557
21	0xbdf9334c	-0.12167987
22	0x3cf86136	0.030319791
23	0x3def0c2e	0.11672245
24	0xbb50faad	-0.0031887696
25	0xbd8bdae8	-0.068288624
26	0x3ddc65fc	0.107616395
27	0xbe5ef4f7	-0.21773134
28	0x3cfbde67	0.030745698
29	0xbe199f79	-0.1500224
30	0xbdc9cc31	-0.098533995
31	0x3df22623	0.1182368
32	0xbcaf179f	-0.021373568
33	0xbc637f2f	-0.013885303
34	0xbec0a99b	-0.376294
35	0x3d0445b8	0.03229305
36	0x3e0fbd14	0.14036971
37	0xbe50066d	-0.20314951
38	0xbe9033b8	-0.28164458
39	0xbe153485	-0.14570816
40	0xbd9edf74	-0.07757464
41	0x3e20149a	0.15632859
42	0xbe881b1a	-0.26583177
43	0xbe10ce93	-0.14141302
44	0x3e7c93d8	0.24665773
45	0xbd1421c0	-0.036165
46	0x3c5ae0d6	0.013359269
47	0x3d7f7dc8	0.062375814
48	0x3e9f1ab8	0.31075072
49	0x3eaa2cff	0.33237454
50	0xbe20012a	-0.15625444
51	0x3ccc8cd7	0.024969501
52	0x3d2cabc0	0.04215598
53	0x3c928660	0.01788634
54	0x3d6ba3de	0.057529323
55	0x3e3f204d	0.18664666
56	0x3e3dba63	0.18528132
57	0x3cf659aa	0.030072052
58	0xbe345723	-0.17611365
59	0xbea37e63	-0.31932363
60	0xbd65b01f	-0.056076165
61	0xbe27d389	-0.16389288
62	0xbe9bc920	-0.30426884
63	0xbf2367ad	-0.6383007
64	0xbf2a3dc6	-0.6650051
65	0xbe1ca771	-0.15298249
66	0xbe55b778	-0.20870769
67	0xbe9199e8	-0.28437734
68	0xbf4abb7a	-0.79192317
69	0xbe97f177	-0.2967641
70	0xbe0977db	-0.13424627
71	0xbec91247	-0.39271757
72	0xbed4e70b	-0.41582522
73	0xbec0407b	-0.37549195
74	0xbecd2601	-0.40068057
75	0xbdb7ca19	-0.08974094
76	0xbd996e19	-0.074917026
77	0xbcd21e67	-0.025649263
78	0x3d864768	0.065565884
79	0x3e031ef5	0.12804778
80	0xbd2f9d21	-0.04287446
81	0x3d7701e8	0.060304552
82	0x3d977e8c	0.07397184
83	0x3e24f6be	0.1610975
84	0xbd9848da	-0.0743577
85	0xbc25de0d	-0.010123742
86	0x3e876f3e	0.2645206
87	0x3e06536a	0.13117757
88	0xbee26ed5	-0.44225183
89	0x3eb29b2c	0.34884012
90	0x3dc873df	0.09787726
91	0x3e294dbb	0.16533558
92	0xbdd79e38	-0.10528225
93	0x3e54d5e8	0.20784724
94	0x3ececa77	0.40388843
95	0xbdd99ced	-0.10625634
96	0xbde51b12	-0.11186804
97	0x3dd52f50	0.10409415
98	0x3e8a6ea9	0.27037552
99	0x3e6169ac	0.22012967
100	0xbe6468bc	-0.22305578
101	0xbe64f149	-0.22357668
102	0xbd3f9940	-0.04677701
103	0x3e2087bc	0.15676779
104	0x3dfabdc0	0.12243223
105	0xbc94444c	-0.018098973
106	0xbdd9a141	-0.1062646
107	0xbe0e77a2	-0.13912824
108	0x3e105911	0.14096476
109	0x3e4289ff	0.18997954
110	0xbd3026be	-0.043005697
111	0xbec27c78	-0.37985587
112	0xbea24ea9	-0.31700638
113	0x3e5cbcbf	0.21556376
114	0x3de88291	0.113530286
115	0x3e96ab86	0.29427737
116	0xbe0128ca	-0.12613216
117	0xbe1484f9	-0.1450385
118	0x3e5a94ab	0.21345775
119	0x3d8f64b2	0.07001628
120	0xbdbeef0c	-0.09322938
121	0xbe452f2c	-0.19256276
122	0xbe3bffb3	-0.1835926
123	0x3dda159a	0.106486514
124	0x3d9702fc	0.07373616
125	0xbe36be69	-0.17846073
126	0xbe384108	-0.17993557
127	0x3dce8bbe	0.100852475
128	0x3de8062a	0.11329301
129	0x3e51c87c	0.20486635
130	0xbe363661	-0.17794181
131	0xbe08e1ac	-0.13367337
132	0xbca77fa0	-0.020446599
133	0x3da0e387	0.078558974
134	0xbe688b77	-0.22709452
135	0x3cbec80d	0.023288751
136	0xbe886ded	-0.26646367
137	0x3d2b3835	0.04180165
138	0x3e575b8e	0.21031019
139	0xbde36bf0	-0.11104572
140	0xbe1df671	-0.15426041
141	0xbdcc309c	-0.09970209
142	0xbdce8899	-0.10084648
143	0x3e9c3792	0.30511147
144	0xbe4af65f	-0.19820546
145	0xbdde300a	-0.108490065
146	0xbda0ffa6	-0.07861261
147	0x3e0dce1c	0.13848156
148	0x3e863af1	0.26216844
149	0xbe4c34c1	-0.19941999
150	0x3e434c46	0.19072065
151	0x3db81c9b	0.08989831
152	0x3e6bac78	0.2301501
153	0xbdd42e70	-0.1036042
154	0xbe43155c	-0.19051117
155	0x3e899b4d	0.26876298
156	0x3e6de14c	0.23230475
157	0x3d763c3a	0.06011603
158	0xbd0652d6	-0.032793842
159	0xbe31b0f2	-0.17352656
160	0x3d4ae9d6	0.04953941
161	0x3e83ec94	0.25766432
162	0xbe26c934	-0.1628769
163	0x3e1c3186	0.15253267
164	0xbdbaedc2	-0.0912738
165	0x3da0cd3b	0.078516446
166	0x3e12a253	0.14319734
167	0xbeeb51b9	-0.45960787
168	0x3d25be3d	0.04046463
169	0x3db7cd50	0.08974707
170	0xbdd202b7	-0.10254424
171	0xbe5ac6cb	-0.21364896
172	0xbe0f458c	-0.13991374
173	0x3e3f5405	0.18684395
174	0x3c5f9b37	0.013647846
175	0xbe953213	-0.29139766
176	0x3d71bf91	0.059020583
177	0x3e2ad832	0.16684034
178	0x3dbb7051	0.09152282
179	0x3e5eb47a	0.21748534
180	0xbdda10f5	-0.106477655
181	0x3e0097ae	0.12557861
182	0xbdb8141b	-0.0898821
183	0xbd2c13c7	-0.04201105
184	0xba9c8c56	-0.0011943679
185	0xbe07c310	-0.13258004
186	0x3e39d1bb	0.18146412
187	0x3e054a5a	0.13016644
188	0xbdcfbebd	-0.10143802
189	0xbdbdff67	-0.0927723
190	0xbd18aaa4	-0.03727211
191	0xbd0fc15e	-0.03509652
192	0x3e1b8292	0.15186527
193	0xbc6f554c	-0.014607739
194	0xbe726245	-0.236703
195	0xbc69c65d	-0.014268485
196	0xbd81f6dd	-0.063459136
197	0x3dab3ce3	0.083612226
198	0x3d9a8f5b	0.07546874
199	0xbefa76c1	-0.48918727
200	0x3eb60242	0.35548598
201	0x3e5fbfbc	0.21850485
202	0x3e0ffd0e	0.14061376
203	0x3dccf90a	0.10008438
204	0x3d26dc3c	0.040737376
205	0x3ea24aaa	0.3169759
206	0x3e9bc7be	0.3042583
207	0xbd8a7df3	-0.06762304
208	0xbe1e56aa	-0.15462747
209	0xbe211ca9	-0.15733589
210	0x3e4e65e5	0.20156057
211	0xbdcfe7c4	-0.10151628
212	0xbeac317f	-0.33631513
213	0xbea7febe	-0.3281154
214	0xbea9dcf2	-0.3317638
215	0x3ea37019	0.3192146
216	0x3e6db928	0.23215163
217	0xbd7b701f	-0.061386224
218	0xbe031ae9	-0.12803234
219	0xbe2b3ba1	-0.16721965
220	0x3d3975a7	0.045278218
221	0x3d3ee3df	0.046604034
222	0x3ce2a036	0.027664285
223	0xbdbd2fc5	-0.09237627
224	0xbd8c4be1	-0.0685041
225	0xbd003bea	-0.03130714
226	0xbcdd9178	-0.027046904
227	0xbd514e87	-0.05110028
228	0x3e2dc328	0.16968977
229	0x3e8eafbc	0.2786845
230	0xbd6ffb09	-0.058589015
231	0xbe2641fc	-0.16236109
232	0xbdc9ba56	-0.09849994
233	0x3e1838f1	0.14865471
234	0x3e0a7d22	0.13524297
235	0x3d8ced7b	0.06881233
236	0x3dc766e2	0.0973642
237	0x3d80867d	0.062756516
238	0x3d8b8a42	0.0681348
239	0x3c3ad468	0.011403181
240	0x3d32cc45	0.043651838
241	0xbd3a1a26	-0.045435093
242	0xbe5bb5d9	-0.21456088
243	0xbcf9c39f	-0.030488787
244	0xbe26e36d	-0.16297694
245	0x3d8fb500	0.07016945
246	0x3d94daf1	0.07268322
247	0xbe8e3a95	-0.2777907
248	0x3de82776	0.113356516
249	0x3e1ac609	0.15114607
250	0xbe55531c	-0.20832485
251	0x3df62f90	0.120207906
252	0xbe4e278c	-0.20132273
253	0xbe0db42d	-0.13838263
254	0xbd9356db	-0.07194301
255	0xbe24cfa4	-0.16094834

block2.branch5x5.1.conv.bias f4 [8]
0	0xbe010978	-0.12601268
1	0xbcac2da1	-0.021017851
2	0xbd86d41c	-0.065834254
3	0x3ee03e9d	0.4379777
4	0xbcfea2ea	-0.031083543
5	0x3bca2f8c	0.006170219
6	0x3dcb3cee	0.09923731
7	0x3e3b2b58	0.18278253
